dca: Successfully preprocessed 125647 genes and 1224 cells.
Model: "model_5"
__________________________________________________________________________________________________
Layer (type)                    Output Shape         Param #     Connected to                     
==================================================================================================
count (InputLayer)              (None, 125647)       0                                            
__________________________________________________________________________________________________
enc0 (Dense)                    (None, 64)           8041472     count[0][0]                      
__________________________________________________________________________________________________
batch_normalization_1 (BatchNor (None, 64)           192         enc0[0][0]                       
__________________________________________________________________________________________________
enc0_act (Activation)           (None, 64)           0           batch_normalization_1[0][0]      
__________________________________________________________________________________________________
center (Dense)                  (None, 32)           2080        enc0_act[0][0]                   
__________________________________________________________________________________________________
batch_normalization_2 (BatchNor (None, 32)           96          center[0][0]                     
__________________________________________________________________________________________________
center_act (Activation)         (None, 32)           0           batch_normalization_2[0][0]      
__________________________________________________________________________________________________
dec1 (Dense)                    (None, 64)           2112        center_act[0][0]                 
__________________________________________________________________________________________________
batch_normalization_3 (BatchNor (None, 64)           192         dec1[0][0]                       
__________________________________________________________________________________________________
dec1_act (Activation)           (None, 64)           0           batch_normalization_3[0][0]      
__________________________________________________________________________________________________
mean (Dense)                    (None, 125647)       8167055     dec1_act[0][0]                   
__________________________________________________________________________________________________
size_factors (InputLayer)       (None, 1)            0                                            
__________________________________________________________________________________________________
lambda_2 (Lambda)               (None, 125647)       0           mean[0][0]                       
                                                                 size_factors[0][0]               
__________________________________________________________________________________________________
dispersion (Dense)              (None, 125647)       8167055     dec1_act[0][0]                   
__________________________________________________________________________________________________
pi (Dense)                      (None, 125647)       8167055     dec1_act[0][0]                   
__________________________________________________________________________________________________
slice (SliceLayer)              (None, 125647)       0           lambda_2[0][0]                   
                                                                 dispersion[0][0]                 
                                                                 pi[0][0]                         
==================================================================================================
Total params: 32,547,309
Trainable params: 32,546,989
Non-trainable params: 320
…
